src/albert/test_files/model_out.npy (npy, 614528 bytes, 1 tensors)

array f4 [20, 10, 768]
-0.39317438 1.116811 0.8022228 0.36575735 0.11984669 1.1730454 1.4858191 2.4479432
-0.34445447 -0.4357669 2.1684654 -0.41800925 0.7928546 -0.5451628 -0.43715206 -0.18337037
-1.5985713 -1.1371819 2.1570911 1.1620187 1.3704228 1.8999444 -2.757171 0.288125
-1.1518849 -0.08903955 1.5867759 -1.6084338 -0.19604428 1.1072823 0.5535075 2.9414804
-0.8189413 -0.56759924 -5.178249 -0.10791477 -0.6429465 1.1552013 -0.5441447 -2.2705262
1.1323881 -1.1301085 0.72498715 0.7875278 0.62849456 -0.8301945 -0.74825555 -1.0904644
-1.1061828 0.9000041 0.8533924 0.13669208 2.1665788 -2.022445 -0.8736503 0.46320426
-1.1043926 0.19402762 -2.2705808 2.9509737 0.52480906 -1.3851532 -0.6464562 -0.57543176
-2.2598171 -0.73075485 0.68895274 0.17649037 0.54301596 -0.5153543 -0.83628327 1.4636456
-0.8273823 0.35157228 1.0661612 0.33873513 -2.1084507 -0.5756312 -1.7208056 -0.9839069
-0.53136516 1.2260214 0.49008402 -0.36386955 -0.07808395 3.1609416 -0.81612974 -2.9602156
-0.3093775 0.24235407 -0.5195158 -1.0345974 0.9291833 -0.71922386 -0.32920152 -1.9888628
0.038733054 0.8849899 0.8170048 -0.46409598 0.075423755 1.9130745 -0.41340274 -1.6009724
0.44700533 -0.904205 -0.10081311 0.10086921 0.047708057 0.26117373 1.4167434 0.665465
-1.1915182 -1.3710445 -0.21235283 1.9254525 -1.5016011 -2.2607884 -1.3249706 -0.8792141
0.5687606 0.35185263 0.46522343 1.2946379 -0.5224499 0.5011461 -0.91216916 0.8677016
-1.2956082 0.53691256 -2.0259352 -1.809077 -2.8516548 -2.6798685 -0.6503757 -2.9461365
1.3661578 0.54590786 0.59999293 -0.2837758 0.5415241 0.6202542 -0.15681222 1.0233564
-0.48479393 0.48462814 1.0166246 -2.288078 1.1017284 -0.80405873 1.5043318 1.2075388
-1.3638608 -1.7214111 1.7018126 -0.6766629 1.1523802 0.35209882 -0.36209032 -1.8556697
-1.266836 -0.50246257 1.4224412 -0.5701873 0.03393603 -1.1556988 0.23769844 0.055326875
-1.0775856 0.9726449 0.4328728 0.93366724 -1.8616891 0.6785048 -2.0243244 -0.06463385
-1.1263386 -0.83283234 2.8406944 -0.3206373 -0.67332125 0.7981996 0.03309314 -1.6924318
0.31888112 2.0890915 -2.4594998 2.2404544 -1.7790408 -0.45452756 1.0420382 -0.35868075
0.09996063 -0.15826626 -0.7287645 0.5525259 0.77909505 1.8637406 0.66925144 -0.7008927
-0.6036974 0.4221323 0.75109744 -0.8142899 1.6377193 0.31750986 -0.19232458 -0.25515243
-1.4635125 -0.26425698 1.2216029 -0.87555677 -0.974585 2.7995608 -0.2210425 -2.9959855
0.18427461 -0.9627918 -0.063081004 -1.3447733 2.572112 -0.7132588 -1.4746605 0.13068892
-1.1004678 0.36917812 -0.5434429 -1.0377172 -0.43880805 2.4175735 2.5980053 -0.25802025
1.4149437 -0.71606594 -0.085673 0.64091957 -1.0997554 -0.80235887 1.2677821 -0.17935936
-0.27251664 -0.97637236 -0.29382417 2.0973492 -0.80513185 -0.23575567 -0.56237656 -1.6632701
0.18005249 0.44113648 0.038700033 1.1715438 0.10435031 -1.4614521 0.7462202 0.68205756
00000000: 274e c9be aaf3 8e3f 795e 4d3f 8c44 bb3e
00000010: 2e72 f53d 5a26 963f 522f be3f 1aab 1c40
00000020: 565c b0be d71c dfbe 23c8 0a40 4f05 d6be
00000030: 85f8 4a3f ca8f 0bbf 65d2 dfbe 71c5 3bbe
00000040: fc9d ccbf 2d8f 91bf c80d 0a40 07bd 943f
00000050: 046a af3f 6131 f33f 7d75 30c0 1f85 933e
00000060: f770 93bf 5e5a b6bd 791b cb3f 29e1 cdbf
00000070: d5bf 48be 6dbb 8d3f abb2 0d3f 3741 3c40
00000080: 23a6 51bf 2f4e 11bf 37b4 a5c0 6b02 ddbd
00000090: 2498 24bf a3dd 933f 114d 0bbf 4d50 11c0
000000a0: 18f2 903f 65a7 90bf c298 393f 6c9b 493f
000000b0: 05e5 203f a087 54bf ad8d 3fbf 5694 8bbf
000000c0: 6697 8dbf ab66 663f ed77 5a3f 02f9 0b3e
000000d0: 3aa9 0a40 bd6f 01c0 8ca7 5fbf 1c29 ed3e
000000e0: bd5c 8dbf 2daf 463e 3251 11c0 c1dc 3c40
000000f0: e359 063f b34c b1bf 277e 25bf 7f4f 13bf
00000100: d8a0 10c0 c012 3bbf 355f 303f e4b9 343e
00000110: 1803 0b3f 42ee 03bf a916 56bf bd58 bb3f
00000120: 54cf 53bf 4801 b43e f877 883f b16e ad3e
00000130: dbf0 06c0 915c 13bf 5c43 dcbf 53e1 7bbf
00000140: 8c07 08bf 45ee 9c3f 4bec fa3e 1c4d babe
00000150: 7aea 9fbd de4c 4a40 e1ed 50bf 2c74 3dc0
00000160: ba66 9ebe aa2b 783e fdfe 04bf b06d 84bf
00000170: f5de 6d3f 0e1f 38bf 1a8d a8be 0e93 febf
00000180: 8da6 1e3d b38e 623f 3a27 513f fd9d edbe
00000190: c577 9a3d a0df f43f 86a9 d3be aaec ccbf
000001a0: e2dd e43e fb79 67bf 1b77 cebd 8494 ce3d
000001b0: 8669 433d 90b8 853e d957 b53f ea5b 2a3f
000001c0: ab83 98bf 637e afbf 0573 59be 3a75 f63f
000001d0: 7734 c0bf c2b0 10c0 a398 a9bf 2d14 61bf
000001e0: 4b9a 113f 0726 b43e c431 ee3e b2b6 a53f
000001f0: 47bf 05bf 1c4b 003f eb83 69bf b121 5e3f
00000200: 7dd6 a5bf 1a73 093f eca8 01c0 d68f e7bf
00000210: 8381 36c0 f782 2bc0 067f 26bf 808d 3cc0
00000220: 42de ae3f 9ec0 0b3f 2399 193f 104b 91be
00000230: 53a1 0a3f fbc8 1e3f 6293 20be 58fd 823f
00000240: e936 f8be 2e21 f83e c120 823f df6f 12c0
00000250: 7005 8d3f cbd6 4dbf f28d c03f a290 9a3f
00000260: fe92 aebf 3357 dcbf ffd4 d93f c839 2dbf
00000270: 3281 933f 4c46 b43e e763 b9be 9686 edbf
00000280: af27 a2bf 63a1 00bf 8e12 b63f cbf7 11bf
00000290: 8200 0b3d f0ed 93bf 3867 733e 6f9e 623d
000002a0: 53ee 89bf 42ff 783f 81a1 dd3e d104 6f3f
000002b0: d44b eebf 7eb2 2d3f 888e 01c0 c05e 84bd
000002c0: dd2b 90bf 8034 55bf f0cd 3540 922a a4be
000002d0: c85e 2cbf cf56 4c3f ac8c 073d 9ba1 d8bf
000002e0: 6344 a33e adb3 0540 7268 1dc0 9b63 0f40
000002f0: 9cb7 e3bf d6b7 e8be 8261 853f 01a5 b7be
00000300: 29b8 cc3d 8d10 22be 4f90 3abf 5672 0d3f
00000310: c672 473f 0d8f ee3f 1054 2b3f b46d 33bf
00000320: ea8b 1abf ba21 d83e ec47 403f 4e75 50bf
00000330: c9a0 d13f a790 a23e bcf0 44be 57a3 82be
00000340: 6154 bbbf b14c 87be 7c5d 9c3f 7d24 60bf
00000350: 677e 79bf 012c 3340 f758 62be 3abe 3fc0
00000360: 7cb2 3c3e 8679 76bf 9d30 81bd 8821 acbf
00000370: 7c9d 2440 2198 36bf adc1 bcbf 51d3 053e
00000380: 21dc 8cbf ea04 bd3e 131f 0bbf ebd3 84bf
00000390: 73ab e0be 86b9 1a40 b845 2640 3b1b 84be
000003a0: e01c b53f 1950 37bf 5375 afbd 4e13 243f
000003b0: c9c4 8cbf 6467 4dbf af46 a23f fba9 37be
000003c0: 4d87 8bbe 8af3 79bf 1f70 96be f83a 0640
000003d0: 1f1d 4ebf ef69 71be e9f7 0fbf 09e6 d4bf
000003e0: ae5f 383e a4dc e13e ed83 1e3d 26f5 953f
000003f0: 9eb5 d53d dd10 bbbf 4908 3f3f 539b 2e3f
